rps_predictor.pt (torch, 50013 bytes, 6 tensors)

net.0.weight f4 [128, 24]
00000000: 852d 81bc 37ed 05bd 746a 8e3d 562f 8bbd
00000010: 4a3c e43d 51f9 a7bc 681c 563e 0e7a 123e
00000020: 4505 543d e6da 023e 89f0 05be 9c43 bc3c
00000030: 1007 a63d 38d3 afbb a03b e5bc 5cc0 b33d
00000040: 1eac 343e baee a13d d50f 113e a663 7a3c
00000050: b921 8abd 569a 5d3e f251 16be 6a5f babd
00000060: d909 e0bd c7e2 1bbe 12ea b1bd 5b6e 1a3e
00000070: d5ee 083e 0832 b03d 6762 20be 9547 8fbd
00000080: e0d5 2cbe 7b2f 60bd b06a 07bc 90b2 58bd
00000090: 3e65 413e 3728 cb3d 80a1 863d fe77 c23d
000000a0: 7776 ffbd 98af 9f3d 4215 b0bd bfe4 e8bd
000000b0: a7ae c1bd db04 a8bd 15bc 193e f1fb db3b
000000c0: 42cb cc3d 4465 353e 7d61 c3bd 99d7 5b3d
000000d0: 9013 413d d2f0 27be 7c82 773d aa5b 5abd
000000e0: 4a63 cabd 1abd 8dbd 2de0 153c e65a 12be
000000f0: c022 083d a320 fdbd efb5 b8bd 7f06 a4bd
00000100: b69f 0ebe 9ddf 48be f32f 17be 9109 4ebd
00000110: 5d08 083e 2fb3 cfbd 606f 333e 7de2 96bd
00000120: 5a3d e33d 9499 53bd aa2d a1bd 966e dd3d
00000130: e6af 67bd 8f56 133e c9d6 17be 9481 ed3c
00000140: 48ea c0bd c4d7 ed3d 7c80 7cbb 4c0e b43d
00000150: 7381 dc3d 9819 9b3d 5982 c83d 0960 01be
00000160: 8642 1dbe cb69 c0bd 1a1a 773d dfab babd
00000170: f416 1a3e e3e3 72be 3978 303e 26ed 32be
00000180: 24ad ffbd 9d4a 6cbe 14dd 0abd 7fba 37be
00000190: 2a84 20bd dcf5 28be d1e2 67bc 410f 1fbe
000001a0: be39 fb3d 4ed9 0cbe 443b 063e bbe1 95bd
000001b0: 0016 383e 8cc7 1cbe 850d 293e 25c6 1f3e
000001c0: f2ee a23d 57e8 c2bd f6f8 babd 8898 11bd
000001d0: 9f86 d13d 59fd 3bbe 88ea 09bd 88c5 0abd
000001e0: e588 15be 8f59 523e 37d1 7bbd b949 00bc
000001f0: bb79 023e fbd8 0a3e 7218 97bd 99a4 ef3d
00000200: fce0 22bd 7f0c 2e3e 9dab 8bbc f779 b33c
00000210: 3d9b db3d 1b98 113e 2f62 8c3d e185 1dbe
00000220: a907 10bd 6c3b 223c ab2b a7bd 6a88 62bd
00000230: 8b3b 153c 601a 17be 9f72 da3d 8f8f 513e
00000240: cfbb 01bd ce09 fabd ea1e 843c d2e3 08ba
00000250: 3229 95bd 8d3e 27bd f724 293e c7d3 34be
00000260: 9382 85bd 4561 48be 710c 2dbd 1c08 02be
00000270: 0357 303e 6a52 83be dfb8 67be 6423 0abe
00000280: c802 953d c8e4 d53b 5b1b 5cbd c517 28be
00000290: b981 39bd bf62 9fbd 8eed 26be dedb 0fbe
000002a0: bd66 073e 02e5 043e a4cc 43be 81f6 95bc
000002b0: d0ff 6cbd 9f18 efbd 6875 6f3d 4737 cbbd
000002c0: 9b61 bc3c 1771 30be 0d38 793c e0bd ca3c
000002d0: f617 fbbd ee2b 08be e985 15bd 4678 01be
000002e0: f733 44be 2234 4f3e 819d 2cbe 808d 3c3d
000002f0: c10a eabd 5070 aa3d d659 1b3e f0c7 473e
00000300: 6d50 4a3d 1fb1 623e 5242 673c 6a54 05bd
00000310: d70b 093d 1ca6 02be 47bf bb3d 40d0 873d
00000320: d9de 343d f184 0b3d d03f 7f3d 1915 a83d
00000330: 4c77 91bd b45d b53d e698 6e3d 8414 21be
00000340: 299d d33d 4aff cbbd 8e54 14be d341 a7bd
00000350: eb3d a73d cde2 753e bd74 08be 4422 383d
00000360: 9879 a33d 2df1 463e ffaa 3f3b 2862 bbbd
00000370: 2ebc 0dbe ebad 483e 5ad3 913d d275 19be
00000380: 2706 183c 3d78 adbd dd7e 4c3e 0ce4 eb3d
00000390: 9e2b 0cbe f1e2 e43d 6c7e 14be 3020 6f3c
000003a0: d54a 90bd 6804 30be c01a dfbd e097 38be
000003b0: 6e2b 0cbe 6db6 773e cfa9 183e 7713 52bc
000003c0: 6724 d03d 4aab 40be 2917 12be 035a bdbd
000003d0: 7150 b0bd fb55 cebd b4a2 533d 5343 d43d
000003e0: 61a9 bebd 22dd 1a3e d74a 213c fd15 f2bd
000003f0: 07fb 023e 0d95 56bd b9a3 ed3d a5ff 003d
-0.015768776 -0.03269693 0.06953898 -0.06796138 0.11144312 -0.020504626 0.20909274 0.14304373
0.051762838 0.12778816 -0.13080038 0.022981457 0.08106816 -0.0053657554 -0.027982533 0.08776924
0.17643782 0.079068616 0.14166196 0.015282547 -0.06744713 0.21640906 -0.14679697 -0.0910023
-0.10939378 -0.15223227 -0.086872235 0.1508116 0.13372357 0.08603293 -0.15662538 -0.06996075
-0.16878462 -0.05473278 -0.008265182 -0.052904665 0.18886277 0.0991978 0.065737724 0.09495543
-0.12473767 0.07797164 -0.085978046 -0.11371755 -0.094571404 -0.08204051 0.15013154 0.0067133834
0.09999706 0.17714411 -0.09540079 0.053672407 0.047137797 -0.1640046 0.060427174 -0.053310074
-0.09882219 -0.06920834 0.009147686 -0.14292488 0.033236265 -0.123597406 -0.09019076 -0.080090515
-0.13928112 -0.19616552 -0.14764385 -0.050302092 0.1328444 -0.101415984 0.17522955 -0.07367418
0.11095686 -0.051660135 -0.07870038 0.10812108 -0.056564234 0.14388488 -0.14828028 0.028992452
-0.094196856 0.1161342 -0.003852873 0.087917894 0.10766878 0.07573241 0.09790487 -0.12634291
-0.15357408 -0.093951784 0.060327627 -0.09114813 0.15047818 -0.23719744 0.17233361 -0.17473277
-0.12484196 -0.23075338 -0.033902243 -0.17942236 -0.03918854 -0.16500038 -0.014153198 -0.15533163
0.12266873 -0.1375477 0.13108546 -0.07318445 0.17977142 -0.15310496 0.16509064 0.1560293
0.079557315 -0.095169716 -0.09129517 -0.035545856 0.10230755 -0.18358363 -0.033670932 -0.033879787
-0.14603002 0.20541976 -0.06147882 -0.007830077 0.12741749 0.13559334 -0.073777094 0.117013164
-0.039765343 0.16996954 -0.017049605 0.021908743 0.10722969 0.1421818 0.068546645 -0.15383102
-0.035163555 0.009901863 -0.08162626 -0.055305876 0.009108434 -0.14756155 0.106663935 0.2046492
-0.03167325 -0.12208901 0.016128022 -0.0005221936 -0.07283248 -0.040831137 0.16518007 -0.17658912
-0.06519046 -0.19568355 -0.042248193 -0.12698406 0.17220692 -0.25648814 -0.22629116 -0.13490063
0.07275921 0.006527517 -0.053737026 -0.16415317 -0.04528973 -0.07782506 -0.16301557 -0.14048716
0.13222785 0.12977985 -0.19121033 -0.018306019 -0.05786115 -0.11674618 0.058461577 -0.09922653
0.02299576 -0.1723064 0.015211117 0.024748743 -0.122604296 -0.13298008 -0.03650466 -0.12643537
-0.19160448 0.20234731 -0.16856958 0.046033382 -0.114278324 0.08322203 0.15170988 0.19509864
0.049393106 0.22137879 0.014114933 -0.032551207 0.033458557 -0.12758678 0.09167343 0.066315174
0.044157837 0.03406233 0.062316716 0.08207149 -0.07102832 0.08855763 0.058251284 -0.15730482
0.1033271 -0.09960802 -0.1448538 -0.08166852 0.08166107 0.24012299 -0.13325782 0.044954553
0.079821765 0.19427939 0.0029246209 -0.09149581 -0.13841316 0.19597594 0.0712039 -0.14986351
0.009278811 -0.08470199 0.1997027 0.11518106 -0.13688514 0.11176098 -0.14501351 0.014595076
-0.07045523 -0.17189181 -0.10893774 -0.18026686 -0.13688442 0.24190684 0.14908527 -0.012822024
0.10163193 -0.18815342 -0.14266647 -0.09245684 -0.08609093 -0.10074993 0.051668838 0.103644036
-0.0930965 0.15123418 0.009844503 -0.118206 0.12791072 -0.05238824 0.11603493 0.0314938

net.0.bias f4 [128]
00000000: b736 9abd 8457 c33d 7ba2 be3d a12c f63d
00000010: 4199 22be cab0 2f3e 1ed4 0b3e a95d 233d
00000020: 335d f33d efd7 563e ac76 75be 9eb9 23be
00000030: 83db 3a3d 2d1a 81bd 023c 57be ecfb 983d
00000040: 04b4 52bd 7d8d 06be d9d2 133e dd2e 16be
00000050: 9197 10bd 8d29 5ebb 2dcc eb3d 1279 40bd
00000060: dda9 e7bc c735 ac3d ff25 d2bd f0d9 883d
00000070: 71fc 8e3d 262e 8fbd 7926 54be 85f4 f63d
00000080: 8bb7 bd3c e9fe 08bd 757a d8bd 174e a63d
00000090: 59c9 f53c 59fa 0b3d 0f3a 323e c4a3 19bd
000000a0: d87a 1dbe e003 abbd dbaa 65bd 8902 773d
000000b0: d287 033e 54dc aa3d d482 dfbb 7ccf e2bc
000000c0: 0d80 50be 5d27 b03d 95d1 e4bd 8424 a73d
000000d0: 8572 b93d ba1c 063e 4165 a0bd ed68 163d
000000e0: 9a47 dabc d6b1 143e c4e9 23bd bb98 3fbe
000000f0: f9e6 e83d d0bc 323e 6dfc a23d e93c a23d
00000100: badc 22be 5c0e 8abd acab da3d 58e1 0bbe
00000110: 92c4 063d 59ce 493d 91ce e23c 7641 a43c
00000120: 096c 30bd 3ccc 813d 25c1 e4bd 4e7e f5bd
00000130: aa67 5f3d 69ef 163e 6713 17be 08b7 ccbd
00000140: 68a8 0d3e 3cf8 59be 8569 68bd 5c53 25be
00000150: 1438 e53d 3513 d3bc 1e99 873d 3bbf 97bd
00000160: c80d 5f3d 4368 a2bd 5339 143e 2b04 113d
00000170: 3ccb 343e 3954 263d 29b3 2abe eddb 30be
00000180: 1e24 613d 892f 1b3d 8e56 423e 3072 0c3e
00000190: eb18 833d ce7c cdbd 0ca4 303e f230 1bbd
000001a0: dcaa 353e d686 85bd 3bc0 babc b33d 313e
000001b0: 8042 3c3e 5ef5 cfbc 641e 56be 3801 7abd
000001c0: 0a01 f2bd 28e1 93bd fad7 be3d 23e0 4b3e
000001d0: 6895 1abe ddf9 e0bd 9b35 35bd ffc1 273e
000001e0: deec 923d ff33 abbd 0831 453d a1f7 bfbd
000001f0: 1209 52bd da9e ce3c c914 30be f699 363e
-0.07529967 0.09538177 0.093083344 0.12020231 -0.15878774 0.17157283 0.13655135 0.039884243
0.11883011 0.2098081 -0.23971051 -0.15988776 0.0456195 -0.06303821 -0.21018985 0.07469925
-0.051441208 -0.13139911 0.14435901 -0.14666314 -0.035300795 -0.0033899278 0.11513553 -0.04699046
-0.02827924 0.08408695 -0.102611534 0.06682193 0.06981743 -0.06991224 -0.20717801 0.12058357
0.02315881 -0.033446226 -0.10570232 0.08120363 0.030003237 0.034174297 0.1740496 -0.037509695
-0.15378892 -0.083503485 -0.056071144 0.060305152 0.1284478 0.083428055 -0.006821016 -0.027686827
-0.20361347 0.08601258 -0.11172787 0.08161262 0.09055046 0.13096896 -0.07831813 0.03672116
-0.02664547 0.14520964 -0.04001786 -0.18710606 0.113721795 0.17454839 0.07958303 0.07921774
-0.15904513 -0.0674102 0.10677275 -0.1366018 0.032902308 0.049269054 0.02768639 0.020050745
-0.04307178 0.06337783 -0.11169652 -0.11986981 0.05454222 0.14739765 -0.14753495 -0.09995848
0.13833773 -0.212861 -0.056741256 -0.1614508 0.11192337 -0.025765995 0.06621002 -0.07409521
0.054456502 -0.079300426 0.14474992 0.035404366 0.17655653 0.040607665 -0.16669907 -0.17271395
0.054966085 0.03788713 0.1897833 0.13715434 0.06401237 -0.1003357 0.17250079 -0.037888475
0.17740959 -0.065198585 -0.02279674 0.17308693 0.18384743 -0.025385555 -0.2091003 -0.06103632
-0.118166044 -0.072206795 0.09318538 0.1990972 -0.15096056 -0.10985158 -0.044240575 0.16382597
0.07174085 -0.08359527 0.048142463 -0.09373403 -0.05127818 0.02522223 -0.17195429 0.17832169

net.2.weight f4 [64, 128]
00000000: 641c d23d a9e6 e9bc 40e1 833b 5dfa 06bc
00000010: 950c e63d 3ae7 8fbd 6495 a23d e331 64bd
00000020: 2faa 5dbd f4cc ac3b f254 02bd ac51 083c
00000030: 3eb5 0a3b 3bc0 273d 2753 29bd 97d4 be3d
00000040: 5b13 eabb 203a d03d 4156 173d 9bb0 17bd
00000050: 758b e63c df26 293c c31c 78bd 6e71 503d
00000060: 56af 663d b29c 90bc 473a b93c 1193 5bbd
00000070: efd0 6e3c 479e 043d 4cdb c5bd 7c5a a4bc
00000080: 85f4 983d 75f0 1abc e368 143d 1118 0fbd
00000090: 3213 45b9 a7df 81bd 6b1b 443d 9314 a3bd
000000a0: fd96 62bb e534 813d 7ed6 d9bc f3c0 86bd
000000b0: 49ea 9e3d f6f4 0ebd d94e cfbd 8b65 19bd
000000c0: ea6b 493c bdda a33d 58a1 8cbd 2a5a 97bd
000000d0: b675 873b 7be2 87b9 aea4 473c 96e0 28bd
000000e0: cbd4 6ebd 3ac4 043d 2729 4bbd 1c72 d53c
000000f0: 544c dc3d 7654 833d e1cd f73c c369 023d
00000100: a534 9cbd dceb a33d 8f90 643d e7e5 d73b
00000110: 5bdc bfbc f4c3 2d3c 1ebc f0bc e2d0 0abd
00000120: 3dad 233b db71 2bbc 210d 603d 55a1 c73d
00000130: 791a d2bd bb81 f33c c88d e73d 4550 423d
00000140: 9f69 2dbd f618 953a f1a5 e23d e86f 083d
00000150: d0b8 a7bb d69f bbbd 03ab 3dbd 8d5a 013d
00000160: 8cc2 ae3c 841e cf3d d2fb c8bb 9395 8c3c
00000170: 921c 88bd 899f f03c edae df3c 3f16 eabc
00000180: 780e 46bd 4635 a83d 0d38 3a3d e4b7 603d
00000190: 1826 363d 2626 52bc 4959 7b3d 0f32 083d
000001a0: dff4 c73d 51e7 bc3c f29f b43d 8e3a 8d3c
000001b0: a689 8ebd 76ff 853c 9715 b83d e094 f0bd
000001c0: be89 7a3d 2690 7e3d c095 733d 95ed c4bd
000001d0: 2d1e 77bd 1e0c b2bc 2fc8 fdbc f554 3abd
000001e0: 1d8a 5b3d a3f6 e93d ad36 b1bc 98c8 73bd
000001f0: a1e7 333d 34d0 993c 180f 773d 6818 e63d
00000200: fbdf db3d 8376 78bc d26f 133d 19fb d6bd
00000210: 192d 96bd f3c5 e9bd 0a4a 763c 011a 4b3d
00000220: 4fe8 c03d 6ff0 003e 942a 9e3c 1a83 7ebd
00000230: eef2 dd3d b27c 2f3d 4974 3d3d 77a3 5d3d
00000240: fc53 8abd c002 a63b b63a 13bd 72cc 76bd
00000250: 05c5 1fbd 6cdc 943d 3c79 ae3c 72d2 663d
00000260: 6588 07bb bbc9 893d 2157 e73b d6ac 5cbd
00000270: b934 923d 6bd5 8c39 f6e5 c83c fa34 d6bd
00000280: 5ec0 e0bd 59b4 2abd e900 a4bd e585 873c
00000290: 8e69 693d 76c6 00bc bde2 ae3a d6f6 15bd
000002a0: 5bfc 19bc a0ff 203d ee02 04be bebf 45bd
000002b0: e868 96bd 6904 53bd 3792 803c 973c 49bd
000002c0: b1f7 a43b 7ec4 a83d 30e1 46bc d960 56bc
000002d0: 13b5 213d 7a7f 943c 02e1 b93d a653 c33d
000002e0: 18e6 973d 9e12 813d f9d0 87bd 3965 533d
000002f0: 5074 803d 8b76 ad3b e1e9 763d d33e d33d
00000300: 5de2 283d 9496 773d a174 de3b eef0 1e3c
00000310: d409 ac3d 3a80 96bc c9c5 9ebb 18a1 34bd
00000320: 3ba8 f6bc 1984 513c 991b b93d 6e7e d43d
00000330: cad2 8e3d 9dd5 08bd e270 b23d ca14 47bd
00000340: e9a1 37bc 3bdf 08bd 1ac0 863d aa8a 1fbd
00000350: 083d b13c 6202 87bb 8cc1 7e3d 3cce 7fbb
00000360: 3b17 643c d77d 7b3d b366 e23d b0ad a3bd
00000370: 0fb7 fb3d cff5 1ebd b2eb e23c 82ea a3bd
00000380: 5d48 4cbd 2628 e13c e676 32bd 3358 62bd
00000390: 8b6d 8b3d 8b8a cbbc 2b05 0b3d fde5 aebc
000003a0: 90c8 fabc 5dcc 9a3b c75f bb3c 00a7 d6bd
000003b0: 466a d73d c63d 91bd 560e bebc 4317 84bd
000003c0: 1fdc d83d 8493 6cbd d186 50bd a480 94bd
000003d0: 76bf 81bd 482d 7038 c696 3d3d 1728 143d
000003e0: 926d ce3d 8d91 09bd 0a2f 47bd eff3 833d
000003f0: 47bf c03d 5041 8bbd 8afd 223d 49aa 33bd
0.10259321 -0.02855237 0.0040246546 -0.008238402 0.112328686 -0.07026525 0.0793865 -0.05571164
-0.054117378 0.0052734558 -0.03181929 0.008320253 0.0021165158 0.04095481 -0.041339066 0.09317892
-0.0071434206 0.101673365 0.036947493 -0.03703366 0.02814267 0.010324209 -0.060574304 0.050889425
0.056319557 -0.017652843 0.022610797 -0.05360705 0.014576181 0.032377508 -0.09660968 -0.020062678
0.074685134 -0.0094567435 0.03623284 -0.03493506 -0.00018794535 -0.063414864 0.04787771 -0.079629086
-0.003457486 0.06308917 -0.026591536 -0.06579771 0.0775953 -0.03490158 -0.10122461 -0.037450355
0.012293795 0.080007054 -0.068667114 -0.07390244 0.0041339053 -0.00025917948 0.012185259 -0.041229807
-0.058308404 0.0324137 -0.049599793 0.026055388 0.10756746 0.06412594 0.030249538 0.031839143
-0.07627229 0.08003971 0.055801924 0.006588686 -0.023420503 0.010605801 -0.029386576 -0.033890612
0.0024975084 -0.010464157 0.05470002 0.097475685 -0.102589555 0.029724946 0.113063395 0.047439832
-0.042337056 0.0011375237 0.11066807 0.033309847 -0.005118467 -0.09161346 -0.046305668 0.031580497
0.021333002 0.10113242 -0.006133535 0.017161166 -0.06646074 0.029372947 0.02730509 -0.02857506
-0.048353642 0.08213286 0.04546361 0.05486287 0.044469923 -0.012826478 0.061364446 0.033250865
0.09763502 0.023059519 0.0881957 0.017239835 -0.06959848 0.016357165 0.08988493 -0.11747146
0.061166517 0.06214919 0.059468985 -0.09615628 -0.060331512 -0.021734294 -0.030979244 -0.045491178
0.053598512 0.11423995 -0.021632517 -0.059517473 0.04392207 0.018776037 0.06031713 0.11235124
0.1073608 -0.015164974 0.035995312 -0.10497112 -0.073328204 -0.11414709 0.015032301 0.049585346
0.09419309 0.12591718 0.019307412 -0.062136747 0.10837351 0.042843528 0.046253476 0.05411097
-0.067543 0.005066246 -0.035944663 -0.060253568 -0.03900625 0.07268605 0.021298043 0.05635304
-0.0020680663 0.0672793 0.007059947 -0.053875767 0.07138962 0.0002686189 0.024523716 -0.10459323
-0.10974191 -0.0416759 -0.08007986 0.016543338 0.05698543 -0.007859817 0.001334272 -0.036612354
-0.009398545 0.039306283 -0.12891743 -0.048278563 -0.07344228 -0.051517878 0.01569472 -0.04913005
0.00503441 0.08240603 -0.01213865 -0.013084614 0.039479326 0.018127192 0.0907612 0.09537439
0.07416934 0.06302379 -0.06631655 0.051610205 0.06272185 0.0052936724 0.060281638 0.10314717
0.0412315 0.060446337 0.0067888056 0.009700997 0.08400312 -0.01837169 -0.004845355 -0.044098943
-0.030109515 0.012787842 0.09038467 0.10375677 0.069737986 -0.033406842 0.08712937 -0.04860381
-0.011208036 -0.033416014 0.06579609 -0.0389506 0.021635547 -0.004120157 0.0621963 -0.0039032837
0.013921554 0.061399307 0.110547446 -0.07992113 0.12290775 -0.03880864 0.027700279 -0.08003713
-0.0498737 0.027484965 -0.04357042 -0.055259895 0.06808003 -0.024846336 0.033940475 -0.021349901
-0.030613214 0.004724069 0.022872819 -0.104810715 0.10518317 -0.070918605 -0.023200195 -0.06449749
0.1058886 -0.05775787 -0.05090982 -0.07251099 -0.063353464 5.726263e-05 0.046286367 0.036171045
0.10079493 -0.033586074 -0.048628844 0.06443011 0.09411483 -0.06799567 0.039792575 -0.04386357

net.2.bias f4 [64]
00000000: b6dd b73d bc66 393d 9a5b 973d 17d3 833d
00000010: 6d46 5ebd ea02 923d 7655 8ebc f0fd b83d
00000020: ea9c 103d abc4 12bd 77af eabc ba50 463d
00000030: 48dd 5bbd 053f 80bd 170c 143d 26b1 a73d
00000040: d977 fa3c ce7c 32bd 764f 9fbd 2d45 c6bd
00000050: 5545 c13c 514e 9e3d 0f08 7b3b b876 b2bc
00000060: 68f2 643c 329a c8bc b8c3 b53d e88d 483c
00000070: 77c2 853d 4db8 94bc 9897 b3bd b3e1 98bd
00000080: 7ef0 ae3d 14a3 e0bc cc8f 7d3b 4607 73bd
00000090: 0323 c9bd 4085 3fbc 6d65 cabd a8ce 9f3d
000000a0: c651 f63c 1385 d83d 130f b93c 316c 833d
000000b0: dbbe d83c 6876 7e3d f732 893d 2501 b83d
000000c0: 4b54 9d3d eb5b a9bd f1b9 49bd 62fd 5cbd
000000d0: cbc7 993d 2b24 7c3d 6062 dc3c e071 4f3d
000000e0: eba1 1d3d 9d28 12bc 4fe1 533d 4d7c adbc
000000f0: 7192 4d3d d40f 55bd f640 cebc 48e3 b8bc
0.08977835 0.04526399 0.073905185 0.064367466 -0.054266382 0.07129462 -0.017374735 0.0903281
0.035305895 -0.03583209 -0.028648121 0.04841683 -0.053677827 -0.0626202 0.036144342 0.08188085
0.030574726 -0.043576054 -0.07778828 -0.09681163 0.02359263 0.077297814 0.0038304364 -0.021785125
0.01397381 -0.024487589 0.08875221 0.012240864 0.06531232 -0.018154288 -0.087691486 -0.07464924
0.08541964 -0.027421512 0.0038690446 -0.05933311 -0.09821131 -0.011689484 -0.09882627 0.078030884
0.03006829 0.10572257 0.022590196 0.0641712 0.026458194 0.06212464 0.06699174 0.08984593
0.07682093 -0.08269485 -0.049249593 -0.053952582 0.075088106 0.06155793 0.026902378 0.05064571
0.038484495 -0.008920816 0.051728543 -0.021177435 0.050188486 -0.052017048 -0.02517746 -0.022569314

net.4.weight f4 [3, 64]
00000000: f0d1 5a3d 1675 b73d 4c3f a53b 0c7c 233d
00000010: df37 f2bc adfc 0a3e b7da b03d bd11 f43c
00000020: 8471 6abd 7d1b 57bc f7d4 c7bd 965b 1f3e
00000030: 9926 f43d e86e 94bc c881 a43c 0398 9b3d
00000040: 27b8 dc3d ba3d b5bd 56a7 95bd 264e ce3c
00000050: 0a31 483d 39c4 ad3d 4baf a03d f035 97bd
00000060: ca83 003e 4fb3 883d 7a2f edbd 0031 b13d
00000070: 5675 073b 6024 01bd 5b7f 94bc 9a28 a73d
00000080: a758 abbd be7d 103e 9b44 f83d cfac efbc
00000090: 74e1 43bb 201e 5f3c 5f03 1c3d 8f36 59bd
000000a0: 3bb7 05be f37c 65bb 970c 1cbe 5211 c13d
000000b0: ebb3 423d 6b74 bc3d 3d94 9e3d 1a77 2e3c
000000c0: 689d be3d 376a d23d 385d ccbc 29ce 923d
000000d0: d35d 873d 6245 9b3c 406d c23c 7cf2 4d3d
000000e0: 72d2 0a3d 4ef9 6fbd 1e1f 4e3d 10cb 513d
000000f0: 396a ac3c 5a09 cdbc c2e4 a4bd 50e1 3ebd
00000100: 8636 433d 2504 ffbd a51c 1c3d 0fad bfbd
00000110: ce92 003d 3543 003d 558a 213e fe5e 3f3d
00000120: 8d96 70bd 0c00 613d 8881 ad3d 3cc1 523d
00000130: e2cb 9f3d 11bb a3bc a65c ea3d edff 93bd
00000140: 99d8 573c 2a24 80bd 652a adbd a6e9 5dbd
00000150: c10c 3d3d 4dea f9bd 2fb9 973d 67a3 d2bd
00000160: 0986 cfbd b50c b4bd d19d 87bd f02f d93c
00000170: 28bd 783d 5215 abbd 1bb8 47bd 391c 56bd
00000180: e77d 64bc ec85 0ebe 1837 15be 764f f4bd
00000190: 32b3 cc3c 7e68 e73d 8d1d e03c 0529 aebd
000001a0: 133a 0f3e 903c 233e 38b4 ed3d 2c2a f93b
000001b0: 161a b1bc e381 d6bd d33a 173d 4188 353d
000001c0: a450 20bd 33be 543d 9d30 97bd 5296 d4bd
000001d0: e0d6 95bd 84f5 12bd aa8a a3bd bada af3d
000001e0: 88f9 3fbd ac7c f43d bafe 19be 044a 05bc
000001f0: 3d34 a1bb 80d7 0d3e 3f48 903d d8c3 c03d
00000200: 67e7 95bd 9d9e b5bc d414 c23c 0936 a63d
00000210: a62c f5bc c39b 0fbe 0c0f 0cbe 4a68 513c
00000220: 497e a83c cb1f 283d ef88 9b3d 66be c7bc
00000230: d46e 73bc ec27 013e 13bb 913d e3d4 6dbd
00000240: 681f 983d 25cc b33d 18e3 0abc 1b6c 81bd
00000250: f4f9 b0bd 6bd1 5f3d 046d c1bc d18d 153e
00000260: a085 43bc 4756 b8bd a22e 043e a86c f1bc
00000270: e2e0 37bd a746 1a3e 6e39 53bd 108b 913d
00000280: 50fd 54bc d9ce cebd db4a aa3d 5376 743d
00000290: 65f1 74bd b089 87bd 3ada e23d 52f4 803c
000002a0: 9c41 7c3d 9ab8 a93d 997d 1c3e 4481 473d
000002b0: 808a 37bc c8ef 093e c21e 00be fbfb c73d
000002c0: 409a 43bb 9379 ce3c 52a8 dd3d 62cf 583d
000002d0: 8cd3 c93d 4358 d43d 13c7 393c 51c5 17be
000002e0: d89c 27bc 0976 e9bd 95be 003e 9796 a6bd
000002f0: 86eb b83d 9a13 2dbd de19 20bd d220 f3bd
0.05342287 0.08957879 0.005042946 0.039913222 -0.029567657 0.1357295 0.086354665 0.029793615
-0.057237163 -0.013129112 -0.09757417 0.15562281 0.119214244 -0.01811929 0.020081416 0.07597353
0.10777312 -0.08849664 -0.073073074 0.025183748 0.048874892 0.08484692 0.078459345 -0.07383335
0.12550274 0.066748254 -0.11581321 0.08651924 0.0020669303 -0.03152883 -0.018127134 0.08162041
-0.083665185 0.14110467 0.121224605 -0.029257206 -0.002988902 0.013618022 0.038089152 -0.053030547
-0.13058178 -0.0035017102 -0.15239178 0.09427132 0.047534864 0.092018925 0.07743118 0.010648513
0.093073666 0.10274165 -0.024946794 0.07168228 0.066096924 0.018953983 0.023733735 0.05028008
0.033892103 -0.058587365 0.050322644 0.051219046 0.021046745 -0.025028873 -0.080514446 -0.046601593
0.04765942 -0.124519624 0.038113255 -0.0935918 0.031390004 0.031314094 0.15775426 0.04672145
-0.058737326 0.054931685 0.08471972 0.051453814 0.078025594 -0.019986661 0.114434525 -0.07226548
0.0131741995 -0.06256898 -0.08455352 -0.054177903 0.04615474 -0.122028925 0.07408368 -0.10285073
-0.10132987 -0.08791486 -0.06621898 0.026512116 0.06072727 -0.08353676 -0.04875956 -0.05227301
-0.013946033 -0.13918275 -0.14571798 -0.119292185 0.02498779 0.11299227 0.02735784 -0.085039176
0.13986997 0.15941072 0.116066396 0.007603904 -0.021618884 -0.10473993 0.036921334 0.044319395
-0.039139405 0.0519392 -0.07382319 -0.10380234 -0.07316375 -0.035878673 -0.079854324 0.08586641
-0.04686883 0.11937842 -0.15038577 -0.0081353225 -0.0049195574 0.13851738 0.0704503 0.09412354
-0.07319527 -0.02217036 0.023691572 0.08115775 -0.029928517 -0.14024262 -0.13677615 0.012781212
0.02056803 0.041045945 0.075944774 -0.024382781 -0.014857966 0.12612885 0.0711576 -0.058064353
0.07427865 0.08779172 -0.008476995 -0.063194476 -0.08641425 0.054643076 -0.023611553 0.1460488
-0.011933714 -0.09000831 0.12908414 -0.029470757 -0.0448922 0.15066014 -0.05156844 0.07106602
-0.0129998475 -0.10098047 0.08315059 0.059683155 -0.059800524 -0.06618059 0.1107678 0.015741501
0.061586007 0.08287163 0.15282287 0.04870726 -0.011202455 0.13470376 -0.12511733 0.09764858
-0.002984658 0.025204455 0.1082312 0.05293215 0.098548025 0.10368397 0.011338967 -0.14821364
-0.010230266 -0.113994665 0.12572701 -0.081341915 0.090292975 -0.04225502 -0.03908717 -0.11871494

net.4.bias f4 [3]
00000000: a42d ebbd 000e d03c 8068 ddbd
-0.11483315 0.0253973 -0.108109474
